…
[2023-07-04 08:51:27,384] INFO: [0;37mWarning: module EdgeConvBlock is treated as a zero-op.[0m
[2023-07-04 08:51:27,384] INFO: [0;37mWarning: module Dropout is treated as a zero-op.[0m
[2023-07-04 08:51:27,384] INFO: [0;37mWarning: module ParticleNet is treated as a zero-op.[0m
[2023-07-04 08:51:27,401] INFO: [0;37mParticleNet(
  |0.574 M, 100.000% Params, 438.224 MMac, 100.000% MACs|
  (edge_convs): ModuleList(
    |0.302 M, 52.644% Params, 420.806 MMac, 96.025% MACs|
    (0): EdgeConvBlock(
      |0.012 M, 2.120% Params, 17.85 MMac, 4.073% MACs|
      (convs): ModuleList(
        |0.01 M, 1.830% Params, 16.794 MMac, 3.832% MACs|
        (0): Conv2d(36, 64, kernel_size=(1, 1), stride=(1, 1), bias=False, |0.002 M, 0.402% Params, 3.686 MMac, 0.841% MACs|)
        (1): Conv2d(64, 64, kernel_size=(1, 1), stride=(1, 1), bias=False, |0.004 M, 0.714% Params, 6.554 MMac, 1.495% MACs|)
        (2): Conv2d(64, 64, kernel_size=(1, 1), stride=(1, 1), bias=False, |0.004 M, 0.714% Params, 6.554 MMac, 1.495% MACs|)
      )
      (bns): ModuleList(
        |0.0 M, 0.067% Params, 614.4 KMac, 0.140% MACs|
        (0): BatchNorm2d(64, eps=1e-05, momentum=0.1, affine=True, track_running_stats=True, |0.0 M, 0.022% Params, 204.8 KMac, 0.047% MACs|)
        (1): BatchNorm2d(64, eps=1e-05, momentum=0.1, affine=True, track_running_stats=True, |0.0 M, 0.022% Params, 204.8 KMac, 0.047% MACs|)
        (2): BatchNorm2d(64, eps=1e-05, momentum=0.1, affine=True, track_running_stats=True, |0.0 M, 0.022% Params, 204.8 KMac, 0.047% MACs|)
      )
      (acts): ModuleList(
        |0.0 M, 0.000% Params, 307.2 KMac, 0.070% MACs|
        (0): ReLU(|0.0 M, 0.000% Params, 102.4 KMac, 0.023% MACs|)
        (1): ReLU(|0.0 M, 0.000% Params, 102.4 KMac, 0.023% MACs|)
        (2): ReLU(|0.0 M, 0.000% Params, 102.4 KMac, 0.023% MACs|)
      )
      (sc): Conv1d(18, 64, kernel_size=(1,), stride=(1,), bias=False, |0.001 M, 0.201% Params, 115.2 KMac, 0.026% MACs|)
      (sc_bn): BatchNorm1d(64, eps=1e-05, momentum=0.1, affine=True, track_running_stats=True, |0.0 M, 0.022% Params, 12.8 KMac, 0.003% MACs|)
      (sc_act): ReLU(|0.0 M, 0.000% Params, 6.4 KMac, 0.001% MACs|)
    )
    (1): EdgeConvBlock(
      |0.058 M, 10.176% Params, 81.344 MMac, 18.562% MACs|
      (convs): ModuleList(
        |0.049 M, 8.570% Params, 78.643 MMac, 17.946% MACs|
        (0): Conv2d(128, 128, kernel_size=(1, 1), stride=(1, 1), bias=False, |0.016 M, 2.857% Params, 26.214 MMac, 5.982% MACs|)
        (1): Conv2d(128, 128, kernel_size=(1, 1), stride=(1, 1), bias=False, |0.016 M, 2.857% Params, 26.214 MMac, 5.982% MACs|)
        (2): Conv2d(128, 128, kernel_size=(1, 1), stride=(1, 1), bias=False, |0.016 M, 2.857% Params, 26.214 MMac, 5.982% MACs|)
      )
      (bns): ModuleList(
        |0.001 M, 0.134% Params, 1.229 MMac, 0.280% MACs|
        (0): BatchNorm2d(128, eps=1e-05, momentum=0.1, affine=True, track_running_stats=True, |0.0 M, 0.045% Params, 409.6 KMac, 0.093% MACs|)
        (1): BatchNorm2d(128, eps=1e-05, momentum=0.1, affine=True, track_running_stats=True, |0.0 M, 0.045% Params, 409.6 KMac, 0.093% MACs|)
        (2): BatchNorm2d(128, eps=1e-05, momentum=0.1, affine=True, track_running_stats=True, |0.0 M, 0.045% Params, 409.6 KMac, 0.093% MACs|)
      )
      (acts): ModuleList(
        |0.0 M, 0.000% Params, 614.4 KMac, 0.140% MACs|
        (0): ReLU(|0.0 M, 0.000% Params, 204.8 KMac, 0.047% MACs|)
        (1): ReLU(|0.0 M, 0.000% Params, 204.8 KMac, 0.047% MACs|)
        (2): ReLU(|0.0 M, 0.000% Params, 204.8 KMac, 0.047% MACs|)
      )
      (sc): Conv1d(64, 128, kernel_size=(1,), stride=(1,), bias=False, |0.008 M, 1.428% Params, 819.2 KMac, 0.187% MACs|)
      (sc_bn): BatchNorm1d(128, eps=1e-05, momentum=0.1, affine=True, track_running_stats=True, |0.0 M, 0.045% Params, 25.6 KMac, 0.006% MACs|)
      (sc_act): ReLU(|0.0 M, 0.000% Params, 12.8 KMac, 0.003% MACs|)
    )
    (2): EdgeConvBlock(
      |0.231 M, 40.348% Params, 321.613 MMac, 73.390% MACs|
      (convs): ModuleList(
        |0.197 M, 34.278% Params, 314.573 MMac, 71.784% MACs|
        (0): Conv2d(256, 256, kernel_size=(1, 1), stride=(1, 1), bias=False, |0.066 M, 11.426% Params, 104.858 MMac, 23.928% MACs|)
        (1): Conv2d(256, 256, kernel_size=(1, 1), stride=(1, 1), bias=False, |0.066 M, 11.426% Params, 104.858 MMac, 23.928% MACs|)
        (2): Conv2d(256, 256, kernel_size=(1, 1), stride=(1, 1), bias=False, |0.066 M, 11.426% Params, 104.858 MMac, 23.928% MACs|)
      )
      (bns): ModuleList(
        |0.002 M, 0.268% Params, 2.458 MMac, 0.561% MACs|
        (0): BatchNorm2d(256, eps=1e-05, momentum=0.1, affine=True, track_running_stats=True, |0.001 M, 0.089% Params, 819.2 KMac, 0.187% MACs|)
        (1): BatchNorm2d(256, eps=1e-05, momentum=0.1, affine=True, track_running_stats=True, |0.001 M, 0.089% Params, 819.2 KMac, 0.187% MACs|)
        (2): BatchNorm2d(256, eps=1e-05, momentum=0.1, affine=True, track_running_stats=True, |0.001 M, 0.089% Params, 819.2 KMac, 0.187% MACs|)
      )
      (acts): ModuleList(
        |0.0 M, 0.000% Params, 1.229 MMac, 0.280% MACs|
        (0): ReLU(|0.0 M, 0.000% Params, 409.6 KMac, 0.093% MACs|)
        (1): ReLU(|0.0 M, 0.000% Params, 409.6 KMac, 0.093% MACs|)
        (2): ReLU(|0.0 M, 0.000% Params, 409.6 KMac, 0.093% MACs|)
      )
      (sc): Conv1d(128, 256, kernel_size=(1,), stride=(1,), bias=False, |0.033 M, 5.713% Params, 3.277 MMac, 0.748% MACs|)
      (sc_bn): BatchNorm1d(256, eps=1e-05, momentum=0.1, affine=True, track_running_stats=True, |0.001 M, 0.089% Params, 51.2 KMac, 0.012% MACs|)
      (sc_act): ReLU(|0.0 M, 0.000% Params, 25.6 KMac, 0.006% MACs|)
    )
  )
  (fusion_block): Sequential(
    |0.173 M, 30.127% Params, 17.318 MMac, 3.952% MACs|
    (0): Conv1d(448, 384, kernel_size=(1,), stride=(1,), bias=False, |0.172 M, 29.993% Params, 17.203 MMac, 3.926% MACs|)
    (1): BatchNorm1d(384, eps=1e-05, momentum=0.1, affine=True, track_running_stats=True, |0.001 M, 0.134% Params, 76.8 KMac, 0.018% MACs|)
    (2): ReLU(|0.0 M, 0.000% Params, 38.4 KMac, 0.009% MACs|)
  )
  (fc): Sequential(
    |0.099 M, 17.228% Params, 99.073 KMac, 0.023% MACs|
    (0): Sequential(
      |0.099 M, 17.184% Params, 98.816 KMac, 0.023% MACs|
      (0): Linear(in_features=384, out_features=256, bias=True, |0.099 M, 17.184% Params, 98.56 KMac, 0.022% MACs|)
      (1): ReLU(|0.0 M, 0.000% Params, 256.0 Mac, 0.000% MACs|)
      (2): Dropout(p=0.1, inplace=False, |0.0 M, 0.000% Params, 0.0 Mac, 0.000% MACs|)
    )
    (1): Linear(in_features=256, out_features=1, bias=True, |0.0 M, 0.045% Params, 257.0 Mac, 0.000% MACs|)
  )
)[0m
[2023-07-04 08:51:27,401] INFO: Computational complexity:       438.22 MMac
[2023-07-04 08:51:27,402] INFO: Number of parameters:           573.57 k
[2023-07-04 08:51:27,402] INFO: Using loss function LogCoshLoss() with options {}
[2023-07-04 08:51:27,884] INFO: Optimizer options: {}
[2023-07-04 08:51:27,886] INFO: --------------------------------------------------
…
