…
[2023-07-04 14:33:21,427] INFO: [0;37mreweight_threshold: 20[0m
[2023-07-04 14:33:21,427] INFO: [0;37mreweight_discard_under_overflow: True[0m
[2023-07-04 14:33:21,429] INFO: Network options: {}
[2023-07-04 14:33:21,472] INFO: [0;37mWarning: module EdgeConvBlock is treated as a zero-op.[0m
[2023-07-04 14:33:21,473] INFO: [0;37mWarning: module Dropout is treated as a zero-op.[0m
[2023-07-04 14:33:21,473] INFO: [0;37mWarning: module ParticleNet is treated as a zero-op.[0m
[2023-07-04 14:33:21,491] INFO: [0;37mParticleNet(
  |0.368 M, 100.000% Params, 419.82 MMac, 100.000% MACs|
  (bn_fts): BatchNorm1d(13, eps=1e-05, momentum=0.1, affine=True, track_running_stats=True, |0.0 M, 0.007% Params, 2.6 KMac, 0.001% MACs|)
  (edge_convs): ModuleList(
    |0.301 M, 81.770% Params, 419.75 MMac, 99.983% MACs|
    (0): EdgeConvBlock(
      |0.011 M, 3.043% Params, 16.794 MMac, 4.000% MACs|
      (convs): ModuleList(
        |0.01 M, 2.678% Params, 15.77 MMac, 3.756% MACs|
        (0): Conv2d(26, 64, kernel_size=(1, 1), stride=(1, 1), bias=False, |0.002 M, 0.452% Params, 2.662 MMac, 0.634% MACs|)
        (1): Conv2d(64, 64, kernel_size=(1, 1), stride=(1, 1), bias=False, |0.004 M, 1.113% Params, 6.554 MMac, 1.561% MACs|)
        (2): Conv2d(64, 64, kernel_size=(1, 1), stride=(1, 1), bias=False, |0.004 M, 1.113% Params, 6.554 MMac, 1.561% MACs|)
      )
      (bns): ModuleList(
        |0.0 M, 0.104% Params, 614.4 KMac, 0.146% MACs|
        (0): BatchNorm2d(64, eps=1e-05, momentum=0.1, affine=True, track_running_stats=True, |0.0 M, 0.035% Params, 204.8 KMac, 0.049% MACs|)
        (1): BatchNorm2d(64, eps=1e-05, momentum=0.1, affine=True, track_running_stats=True, |0.0 M, 0.035% Params, 204.8 KMac, 0.049% MACs|)
        (2): BatchNorm2d(64, eps=1e-05, momentum=0.1, affine=True, track_running_stats=True, |0.0 M, 0.035% Params, 204.8 KMac, 0.049% MACs|)
      )
      (acts): ModuleList(
        |0.0 M, 0.000% Params, 307.2 KMac, 0.073% MACs|
        (0): ReLU(|0.0 M, 0.000% Params, 102.4 KMac, 0.024% MACs|)
        (1): ReLU(|0.0 M, 0.000% Params, 102.4 KMac, 0.024% MACs|)
        (2): ReLU(|0.0 M, 0.000% Params, 102.4 KMac, 0.024% MACs|)
      )
      (sc): Conv1d(13, 64, kernel_size=(1,), stride=(1,), bias=False, |0.001 M, 0.226% Params, 83.2 KMac, 0.020% MACs|)
      (sc_bn): BatchNorm1d(64, eps=1e-05, momentum=0.1, affine=True, track_running_stats=True, |0.0 M, 0.035% Params, 12.8 KMac, 0.003% MACs|)
      (sc_act): ReLU(|0.0 M, 0.000% Params, 6.4 KMac, 0.002% MACs|)
    )
    (1): EdgeConvBlock(
      |0.058 M, 15.857% Params, 81.344 MMac, 19.376% MACs|
      (convs): ModuleList(
        |0.049 M, 13.353% Params, 78.643 MMac, 18.733% MACs|
        (0): Conv2d(128, 128, kernel_size=(1, 1), stride=(1, 1), bias=False, |0.016 M, 4.451% Params, 26.214 MMac, 6.244% MACs|)
        (1): Conv2d(128, 128, kernel_size=(1, 1), stride=(1, 1), bias=False, |0.016 M, 4.451% Params, 26.214 MMac, 6.244% MACs|)
        (2): Conv2d(128, 128, kernel_size=(1, 1), stride=(1, 1), bias=False, |0.016 M, 4.451% Params, 26.214 MMac, 6.244% MACs|)
      )
      (bns): ModuleList(
        |0.001 M, 0.209% Params, 1.229 MMac, 0.293% MACs|
        (0): BatchNorm2d(128, eps=1e-05, momentum=0.1, affine=True, track_running_stats=True, |0.0 M, 0.070% Params, 409.6 KMac, 0.098% MACs|)
        (1): BatchNorm2d(128, eps=1e-05, momentum=0.1, affine=True, track_running_stats=True, |0.0 M, 0.070% Params, 409.6 KMac, 0.098% MACs|)
        (2): BatchNorm2d(128, eps=1e-05, momentum=0.1, affine=True, track_running_stats=True, |0.0 M, 0.070% Params, 409.6 KMac, 0.098% MACs|)
      )
      (acts): ModuleList(
        |0.0 M, 0.000% Params, 614.4 KMac, 0.146% MACs|
        (0): ReLU(|0.0 M, 0.000% Params, 204.8 KMac, 0.049% MACs|)
        (1): ReLU(|0.0 M, 0.000% Params, 204.8 KMac, 0.049% MACs|)
        (2): ReLU(|0.0 M, 0.000% Params, 204.8 KMac, 0.049% MACs|)
      )
      (sc): Conv1d(64, 128, kernel_size=(1,), stride=(1,), bias=False, |0.008 M, 2.226% Params, 819.2 KMac, 0.195% MACs|)
      (sc_bn): BatchNorm1d(128, eps=1e-05, momentum=0.1, affine=True, track_running_stats=True, |0.0 M, 0.070% Params, 25.6 KMac, 0.006% MACs|)
      (sc_act): ReLU(|0.0 M, 0.000% Params, 12.8 KMac, 0.003% MACs|)
    )
    (2): EdgeConvBlock(
      |0.231 M, 62.871% Params, 321.613 MMac, 76.607% MACs|
      (convs): ModuleList(
        |0.197 M, 53.412% Params, 314.573 MMac, 74.930% MACs|
        (0): Conv2d(256, 256, kernel_size=(1, 1), stride=(1, 1), bias=False, |0.066 M, 17.804% Params, 104.858 MMac, 24.977% MACs|)
        (1): Conv2d(256, 256, kernel_size=(1, 1), stride=(1, 1), bias=False, |0.066 M, 17.804% Params, 104.858 MMac, 24.977% MACs|)
        (2): Conv2d(256, 256, kernel_size=(1, 1), stride=(1, 1), bias=False, |0.066 M, 17.804% Params, 104.858 MMac, 24.977% MACs|)
      )
      (bns): ModuleList(
        |0.002 M, 0.417% Params, 2.458 MMac, 0.585% MACs|
        (0): BatchNorm2d(256, eps=1e-05, momentum=0.1, affine=True, track_running_stats=True, |0.001 M, 0.139% Params, 819.2 KMac, 0.195% MACs|)
        (1): BatchNorm2d(256, eps=1e-05, momentum=0.1, affine=True, track_running_stats=True, |0.001 M, 0.139% Params, 819.2 KMac, 0.195% MACs|)
        (2): BatchNorm2d(256, eps=1e-05, momentum=0.1, affine=True, track_running_stats=True, |0.001 M, 0.139% Params, 819.2 KMac, 0.195% MACs|)
      )
      (acts): ModuleList(
        |0.0 M, 0.000% Params, 1.229 MMac, 0.293% MACs|
        (0): ReLU(|0.0 M, 0.000% Params, 409.6 KMac, 0.098% MACs|)
        (1): ReLU(|0.0 M, 0.000% Params, 409.6 KMac, 0.098% MACs|)
        (2): ReLU(|0.0 M, 0.000% Params, 409.6 KMac, 0.098% MACs|)
      )
      (sc): Conv1d(128, 256, kernel_size=(1,), stride=(1,), bias=False, |0.033 M, 8.902% Params, 3.277 MMac, 0.781% MACs|)
      (sc_bn): BatchNorm1d(256, eps=1e-05, momentum=0.1, affine=True, track_running_stats=True, |0.001 M, 0.139% Params, 51.2 KMac, 0.012% MACs|)
      (sc_act): ReLU(|0.0 M, 0.000% Params, 25.6 KMac, 0.006% MACs|)
    )
  )
  (fc): Sequential(
    |0.067 M, 18.223% Params, 67.333 KMac, 0.016% MACs|
    (0): Sequential(
      |0.066 M, 17.874% Params, 66.048 KMac, 0.016% MACs|
      (0): Linear(in_features=256, out_features=256, bias=True, |0.066 M, 17.874% Params, 65.792 KMac, 0.016% MACs|)
      (1): ReLU(|0.0 M, 0.000% Params, 256.0 Mac, 0.000% MACs|)
      (2): Dropout(p=0.1, inplace=False, |0.0 M, 0.000% Params, 0.0 Mac, 0.000% MACs|)
    )
    (1): Linear(in_features=256, out_features=5, bias=True, |0.001 M, 0.349% Params, 1.285 KMac, 0.000% MACs|)
  )
)[0m
[2023-07-04 14:33:21,492] INFO: Computational complexity:       419.82 MMac
[2023-07-04 14:33:21,492] INFO: Number of parameters:           368.1 k 
[2023-07-04 14:33:21,492] INFO: Using loss function CrossEntropyLoss() with options {}
[2023-07-04 14:33:22,097] INFO: Optimizer options: {}
[2023-07-04 14:33:22,099] INFO: --------------------------------------------------
…
